…
{"application/vnd.jupyter.widget-view+json":{"model_id":"19c391e8ae7e4717bc3181532c548b23","version_major":2,"version_minor":0},"text/plain":["config.json:   0%|          | 0.00/570 [00:00<?, ?B/s]"]},"metadata":{},"output_type":"display_data"},{"data":{"application/vnd.jupyter.widget-view+json":{"model_id":"7aa7c72b59da460d942e1254f7ec2fca","version_major":2,"version_minor":0},"text/plain":["model.safetensors:   0%|          | 0.00/440M [00:00<?, ?B/s]"]},"metadata":{},"output_type":"display_data"},{"data":{"text/plain":["BertModel(\n","  (embeddings): BertEmbeddings(\n","    (word_embeddings): Embedding(30522, 768, padding_idx=0)\n","    (position_embeddings): Embedding(512, 768)\n","    (token_type_embeddings): Embedding(2, 768)\n","    (LayerNorm): LayerNorm((768,), eps=1e-12, elementwise_affine=True)\n","    (dropout): Dropout(p=0.1, inplace=False)\n","  )\n","  (encoder): BertEncoder(\n","    (layer): ModuleList(\n","      (0-11): 12 x BertLayer(\n","        (attention): BertAttention(\n","          (self): BertSdpaSelfAttention(\n","            (query): Linear(in_features=768, out_features=768, bias=True)\n","            (key): Linear(in_features=768, out_features=768, bias=True)\n","            (value): Linear(in_features=768, out_features=768, bias=True)\n","            (dropout): Dropout(p=0.1, inplace=False)\n","          )\n","          (output): BertSelfOutput(\n","            (dense): Linear(in_features=768, out_features=768, bias=True)\n","            (LayerNorm): LayerNorm((768,), eps=1e-12, elementwise_affine=True)\n","            (dropout): Dropout(p=0.1, inplace=False)\n","          )\n","        )\n","        (intermediate): BertIntermediate(\n","          (dense): Linear(in_features=768, out_features=3072, bias=True)\n","          (intermediate_act_fn): GELUActivation()\n","        )\n","        (output): BertOutput(\n","          (dense): Linear(in_features=3072, out_features=768, bias=True)\n","          (LayerNorm): LayerNorm((768,), eps=1e-12, elementwise_affine=True)\n","          (dropout): Dropout(p=0.1, inplace=False)\n","        )\n","      )\n","    )\n","  )\n","  (pooler): BertPooler(\n","    (dense): Linear(in_features=768, out_features=768, bias=True)\n","    (activation): Tanh()\n","  )\n",")"]},"execution_count":18,"metadata":{},"output_type":"execute_result"}],"source":["import torch\n","from transformers import BertModel, BertTokenizer\n","\n","# Load pre-trained BERT model and tokenizer\n","model_name = 'bert-base-uncased'\n","tokenizer = BertTokenizer.from_pretrained(model_name)\n","bert_model
…
